Models/pytorch_computer_vision_FashionMNIST.pth (torch, 35634 bytes, 10 tensors)

conv_block_1.0.weight f4 [10, 1, 3, 3]
00000000: 2b1e a03e c043 c83e e7db d6be a95e 1f3e
00000010: 84dd 393e 9edb b33d e347 e2be ee61 123e
00000020: c91a a23e 8260 bfbe da46 f53e 850a 09be
00000030: 80f2 843e f737 cd3e 04b1 883d 6163 1fbe
00000040: 9d61 a03e 0b64 b23d 24fa babe 73fa 0abd
00000050: 9433 1dbd 623e 26bf bb3d 1abf 20b9 583e
00000060: 89f1 50bf 0483 29bf bf45 f9bd 431e 3fbf
00000070: 5945 64bf c052 3abf 6635 953e 63e7 05bf
00000080: e1dc 803e 34a1 963e c8aa 35bd 18fa b63e
00000090: f791 573c 3ef9 b33e 49d8 e2bd 2f91 77be
000000a0: 5c71 723e 74d0 62be 409a c6bd df71 ad3e
000000b0: 4c4f 043e 5da2 19be db92 3c3e f4bd 6c3d
000000c0: 598c 273e ce77 52be 430b a9be 1e4b 05be
000000d0: 4ec6 83be 4cec 843e 1c24 a33d 643e de3d
000000e0: 9243 53bc adba 0bbc d655 323e 47e3 8cbe
000000f0: 6e9e 20be 192f 00bf 0e12 e7bd 2b87 d0bd
00000100: e193 a23c 43e1 4bbe 71ec a13e f69e 65be
00000110: 718a 91be ca8c 6fbe c7e3 cd3e af4a 893e
00000120: 9910 e63e 3df2 a1be 6830 b9be 427f 87be
00000130: f9cb a3be c722 123e 05cf 8f3e 049a d93e
00000140: 125e 1ebe ff72 68be 9561 343e 9d61 0abe
00000150: aac3 4d3e 5d8b a5bd 4c90 413e bfa7 84be
00000160: 3163 2cbe 7bf4 cd3d
0.31273016 0.3911419 -0.41964647 0.15563454 0.18150908 0.08782123 -0.4419547 0.1429517
0.3166106 -0.37378317 0.47905618 -0.13382919 0.25966263 0.4008176 0.06674388 -0.15565254
0.31324473 0.08710488 -0.36518967 -0.033930253 -0.038379267 -0.6493894 -0.60250443 0.2116437
-0.81618553 -0.6621554 -0.12171506 -0.7465555 -0.89168316 -0.72782516 0.29142302 -0.52306193
0.25168517 0.29419863 -0.044352323 0.3573768 0.013157359 0.35151094 -0.11076409 -0.24176477
0.23676056 -0.22149831 -0.096973896 0.3387594 0.12920874 -0.15003343 0.18415396 0.05779834
0.16362132 -0.20553514 -0.33016405 -0.13016936 -0.25737232 0.2596153 0.07965872 0.10851744
-0.012894528 -0.008528394 0.17415556 -0.2751715 -0.15685436 -0.50071865 -0.112827405 -0.10182031
0.019845905 -0.1991015 0.31625703 -0.2242392 -0.28425935 -0.2339355 0.40212843 0.26814792
0.44934538 -0.31630126 -0.36169744 -0.26464278 -0.31991556 0.14271079 0.2808763 0.42500317
-0.15465572 -0.22700118 0.1761535 -0.13513799 0.20094171 -0.08083222 0.18902701 -0.2590923
-0.16834714 0.100563966

conv_block_1.0.bias f4 [10]
00000000: 00b0 6e3c d3ec 823d 75d9 193e 33ec 033e
00000010: 542e 9fbd 0d5e 4bbe 0d0f 6a3e 0814 60bd
00000020: 4182 07bd 6909 a6be
0.014568329 0.06392827 0.1502436 0.12883072 -0.07772508 -0.19860096 0.22857304 -0.054706603
-0.033083204 -0.32429054

conv_block_1.2.weight f4 [10, 10, 3, 3]
00000000: fcb6 103e 4916 4d3d c999 a1ba abf8 b0bd
00000010: 6b67 37be d044 4abe aef6 debd aeec 4bbe
00000020: 0be6 46be e94b 38bd d7db 483b c5d4 babd
00000030: 111c 3bbe 2dea acbe 2af9 88be 1803 09be
00000040: b327 5fbe 2f1f 7abe 61ae 06bd b5f2 063d
00000050: 79d4 f93d d825 203d 31e6 843e f343 4e3e
00000060: 8dd9 f8bd bb5b e53b e44a 9c3d 426f 47be
00000070: ef03 0abd e779 3dbe 82dc cc3c 276a 00bd
00000080: 69a4 00be 9961 4c3e 7dc2 4c3d 71d4 293d
00000090: f9ce fbbd f1aa 03be e60e 933a 923c 4fbd
000000a0: 3140 013d a86a e4bd 6d36 993d 9c79 a7bd
000000b0: a9b0 c7bc dd23 b73c 974d 603d 8483 ae3d
000000c0: 322a c53d 26fe aabd 8818 ed3c 4c87 38bd
000000d0: 9abd 4fbc a80d a0bd 747a 423e c7ca a7bc
000000e0: 760c 1c39 5afd 193e 3274 e13d 6137 38bd
000000f0: b2de 983d 79a3 dc3b 9515 90bd 09a9 b0bd
00000100: d6d8 503d 2c01 acbb 4a14 40bd 5b22 ae3d
00000110: 9db8 703c bff2 3bbd 17fd 84bd 1dae 97bc
00000120: af80 8d3d c9d5 213a 429f 05bd bb0a 26bd
00000130: d356 77bd 44a7 873d f657 cd3d f954 d4bd
00000140: ab72 c0b8 2c07 5f3d 15a3 9c3c 15b9 19bd
00000150: 4658 613d c5e4 623d 3c76 213d d7bc 97bc
00000160: 95a4 e4bc d2a3 383c dc6a 05bd 6b3a 0dbd
00000170: 3f40 9e3d 45db a03d 8300 acbb f0e8 46bc
00000180: 2e46 9abc 4d80 8dbc 7ec4 2b3c 188f 803c
00000190: 6c77 b2bd cdce 00bd d60c 9f3d 6e6c 4a3d
000001a0: b2f0 b03b cb09 f0bd c6fc bebd 0a4a dbbd
000001b0: 2728 10bd a034 0b3d c29b 7b3d 2dcb 3f3d
000001c0: 5f28 c3bd c641 8cbd 3526 a4bc 7442 d33d
000001d0: 5aae 5b3c 1806 7dbb ce8d 4b3d 1af9 0abd
000001e0: 285d 83bd aca7 9a3d f4c9 4fbd 3b96 c3bc
000001f0: 7feb ebbd 5f30 883d db73 8d3d c2d0 093d
00000200: cc64 9cbd 31db 05be 840e d9bd a410 913d
00000210: 8c8b a13c 14e4 9c3d 07c6 313d 96ab da3c
00000220: 72d8 70ba 6b12 a4bd 719c b8bd b1bc c9bd
00000230: c7b6 313d 017a 53bd ddef adbc a7e9 78bd
00000240: 46a1 ccbc 97f2 9bbd 5152 95bd 3677 2a3d
00000250: 652c f9bc a5b3 893d 6b85 99bc 2786 a2bd
00000260: 6e4c a5bc 35e0 51bd 68a5 06bd de1a cebd
00000270: 06c9 7a3d a285 93bd fd15 5c3d 7ddd 3e3d
00000280: 0f56 9f3d 5c53 a6bd 5edc a73d efe2 41bd
00000290: 5e54 243d 81f8 c73d 4d5f 7fbc 9abb c1ba
000002a0: 6141 cdbc 7247 b5bd 2166 533d 494e d6bd
000002b0: c509 863d ff88 a13d 4f2b cc3d b1a7 cbbc
000002c0: 2265 b1bd 0c2b c23c 9b83 6e3d 1ddc d6bd
000002d0: 855f cabc c288 83bd d5c6 2dbc 396d 55bd
000002e0: d14c 30bd 4b42 01bd ab4d c9bd 938a b23d
000002f0: 2925 b43d 67ad 89bc cf6b 4abc f7a0 2ebd
00000300: f2bf c2bd e820 d1bd 22f2 233d 92a8 63bd
00000310: 74dd 86bd 825b e2bb 9ead 1cbd 9ac9 1cbd
00000320: d104 6bba e62e b1bc 58c3 16bd 7f38 56bd
00000330: 3483 b0bd 4fb5 b33d d461 2cbd 3cb0 c33c
00000340: 27c3 22bd fa6c 903b 1292 c93d 6764 4a3d
00000350: a676 b7bd d9f4 1f3d c6ea c83d 51d8 e93c
00000360: 72bb 903d badc d43d 7183 83bc b9bc b83c
00000370: 4380 96bd cbdc b0bc 5fa8 9d3d 3f71 5b3d
00000380: cadc 8bbd 061c adbd f685 93bd 890c d5bd
00000390: 7b94 a6bd 966c d6bc d800 923d 8e96 903c
000003a0: f01a a4bd 1e2f adbd 6345 4a3d df88 a7bd
000003b0: c5b9 85bc 9f4d 4b3d 5c2e 4fbd 1083 48bc
000003c0: 4a0f 22bc e728 d3bc faa4 5bbd 9476 c0bd
000003d0: 0d83 aebd 8247 67bd 2b2f d03d 50f4 50bd
000003e0: fdac 8fbd 1df4 d63c 571b f73c 8b70 683d
000003f0: 6e73 a33d 9320 703d 8f17 d6bd bc26 3b3c
0.14132303 0.05007008 -0.0012329157 -0.0864118 -0.17910545 -0.19752812 -0.10886894 -0.19914505
-0.19423692 -0.04499427 0.0030648613 -0.09122614 -0.18272425 -0.33772412 -0.26752597 -0.13380086
-0.21792488 -0.24425958 -0.032881144 0.032946307 0.12198729 0.03909859 0.25956872 0.20143108
-0.121508695 0.0069994605 0.07631472 -0.19476035 -0.033695158 -0.18503533 0.02500749 -0.031351235
-0.12562717 0.19959106 0.049990166 0.041462366 -0.12295336 -0.12858178 0.001121965 -0.050594874
0.03155536 -0.111531556 0.07481084 -0.08177492 -0.02437623 0.022355968 0.054761495 0.08521178
0.09627189 -0.08349256 0.028942361 -0.045050904 -0.012679482 -0.07815105 0.18992025 -0.020482434
0.00014881961 0.15038052 0.110084906 -0.04497469 0.07464351 0.0067333546 -0.070353664 -0.08625991
0.05098804 -0.005249163 -0.04689435 0.085026465 0.014692453 -0.045885798 -0.064935856 -0.01851564
0.0690931 0.0006173519 -0.032622583 -0.040537577 -0.060385536 0.066237 0.10026543 -0.1036777
-9.176632e-05 0.0544502 0.019120732 -0.037530024 0.055015825 0.055393953 0.039419398 -0.018522663
-0.02791051 0.011269527 -0.032572612 -0.03447954 0.07727098 0.07854322 -0.0052490844 -0.012140498
-0.018832292 -0.017273093 0.010483859 0.015693232 -0.08714184 -0.03144722 0.0776612 0.049419813
0.005399787 -0.11720618 -0.093255565 -0.10707481 -0.035194542 0.033985734 0.06142784 0.046824623
-0.095291846 -0.06848483 -0.02003775 0.10315409 0.013408268 -0.0038608368 0.049695782 -0.033928968
-0.064142525 0.07551512 -0.050729707 -0.023875346 -0.11519527 0.06649851 0.06906863 0.033646353
-0.07636413 -0.13071896 -0.10598472 0.07083252 0.019719861 0.0766069 0.043401744 0.026693147
-0.00091875263 -0.080113254 -0.09014214 -0.09850443 0.0433872 -0.051630024 -0.02123254 -0.060769703
-0.024979245 -0.0761463 -0.07291091 0.041617595 -0.030416677 0.067237176 -0.018740376 -0.07935744
-0.020178046 -0.05123921 -0.032872587 -0.10063718 0.061226867 -0.07203223 0.053731907 0.046597946
0.07780086 -0.08121368 0.081963286 -0.04733556 0.04011952 0.09764195 -0.015586686 -0.0014780641
-0.02505559 -0.08851518 0.05161107 -0.104641505 0.06544832 0.07887458 0.09969198 -0.024860235
-0.08661868 0.023702167 0.058230978 -0.10491202 -0.02470375 -0.06422569 -0.010606487 -0.052106116
-0.043042008 -0.031557363 -0.09829267 0.08717837 0.0879615 -0.016806317 -0.012354805 -0.042633977
-0.09509267 -0.102113545 0.040025838 -0.055580683 -0.065852076 -0.0069078812 -0.03825151 -0.0382782
-0.0008965256 -0.021628808 -0.036807388 -0.052299973 -0.08618775 0.08774816 -0.042085484 0.023887746
-0.039736893 0.0044075223 0.09842314 0.049412157 -0.08958177 0.039051864 0.098104045 0.02854553
0.07067002 0.10393663 -0.016053887 0.022550927 -0.07348683 -0.021589657 0.0769813 0.053574797
-0.068292215 -0.08452611 -0.072032854 -0.104027815 -0.08133789 -0.026174825 0.07129067 0.017649915
-0.080129504 -0.084562525 0.04938258 -0.08180403 -0.016323933 0.049634572 -0.05058132 -0.012238279
-0.0098913405 -0.02577634 -0.05362413 -0.09397617 -0.0852109 -0.05646468 0.101652466 -0.051014245
-0.07015417 0.02623945 0.030164404 0.056747954 0.07981001 0.058624815 -0.10453712 0.011422809

conv_block_1.2.bias f4 [10]
00000000: a7eb c23e fca6 3dbd f0f2 6cbd b4cc fe3e
00000010: 3a45 edbd 9ef1 ab3d 6e28 c63d 4b3f cbbc
00000020: 7484 3e3e b23c 58bc
0.38070413 -0.046301827 -0.05784887 0.4976555 -0.115854695 0.08395694 0.0967568 -0.024810454
0.18605214 -0.013198065

conv_block_2.0.weight f4 [10, 10, 3, 3]
00000000: f2c2 0cbd d0c4 c7bd a6cb efbc 5fc2 26bd
00000010: 7652 fd3c d301 153e b349 8cbd 37d5 7b3d
00000020: eabf f23d 515d 713d d46b c7bd 5884 24bd
00000030: 44e7 b7bd 4e74 8abd 65d7 703d 23ac 48bc
00000040: 07b1 3f3d 5853 7abd 4012 853c 4321 82bd
00000050: 3caf 573d 1eb0 3bbd 13b9 d4bc 0f6a bbbd
00000060: 1c1c b239 3e33 cd3d 4fab 513d fb52 b9bd
00000070: 6ce3 903d a779 febc a814 00be 8822 c03d
00000080: e3d8 b1bd 191e fdbc 6e98 c2bd feea a1bd
00000090: 425e 7f3c 3b23 193d 8601 c23c beaa 52bd
000000a0: e08d d53d 1e4c 90bc 5f4c 8dbd 7781 40bd
000000b0: 2b5e cf3d 2857 d53d 646d a7bc 21f2 85bd
000000c0: 6dbb 8c3d 3940 1dbd 0687 cdbd d49e bd3d
000000d0: a585 1b3e 95ea 863d 991f 10be ec6a f63d
000000e0: 6f45 05be a688 9b3d 6e00 db3d 35b1 b4bc
000000f0: bb2a 863e 8672 bb3c 1516 acbd e656 083d
00000100: dca3 ddbb 7272 c83c fa92 693c d534 303d
00000110: 5986 01be 8ec4 a73d d005 89bd 28a4 65bd
00000120: 6ef4 0dbe ac47 19bd fe69 ff3b 383d 243d
00000130: ebd4 043e 4fc0 313d f5be 67bd 482f fdbd
00000140: c590 b33c a710 863e 5699 67bd 29b7 403d
00000150: 60a4 803e a691 c53d 2e21 7dbd 725b 323e
00000160: 046f 2b3e e75d 3e3d 34b8 d7bc 73bd 26be
00000170: 679a 1cbe 071d 363e ed7c acbe 89b1 1ebc
00000180: 2003 2c3d 1959 d33c 2668 c7bd f710 473d
00000190: 269f 24bd 4444 e7bd c2d3 4dbd 556a d53d
000001a0: fcf8 b5bc 2157 733c e4f1 38bd b2f7 863d
000001b0: 0d61 7a3d ca97 153d 9277 56bd a1d1 b0bd
000001c0: fcc2 8c3b ebdf 7cbd 902c b13d 8199 cfbd
000001d0: 1f76 403d 5f4b 18be 4c3a a83e ee7d b13e
000001e0: 33cc 25be 1523 5d3f cedc 2d3e a14f 64bf
000001f0: 8a1c 8bbd 097e a6bd 7aa6 4fbb 9cdf bf3d
00000200: 2127 89bd 606b 85bd 0b12 6c3b 45e8 eeba
00000210: fbd9 1f3c 676d e7bd d2bc 28bd e1c6 1e3e
00000220: d691 efbe 8394 48bd 24ad 973e d5d9 dd3d
00000230: 997b 1dbc 8c6d b53c 9e3f 8e3e 36a9 163e
00000240: 4ead 0fbf 28c1 f2bd 043d 303e 9bb5 14bf
00000250: e290 b53e bc00 c23e 85ae bbbe 5c9e 8ebd
00000260: 04e9 b6bc de6a 02bd 3698 8abe 5fe7 973d
00000270: b1ae 83be 7bd6 f4bc 48e1 33be 6f15 65be
00000280: 8da7 05be d350 fcbd a68e d0be c5f9 b13d
00000290: b612 d93e 8da3 37be 967f 9e3e a6a7 a73e
000002a0: 4145 92be f510 bdbd 2dee b0bd 28dd ab3e
000002b0: d9d3 48bd 8387 01be fca4 8a3e ed60 91bd
000002c0: a574 99be ffff 94be ff66 cc3d 9185 b83d
000002d0: 3b1d 7dbd 1a4d 8a3d 74be 8f3d e1c4 d7bd
000002e0: 52dc dabd 8670 cdbd 8d23 a0bd 87b6 5ebd
000002f0: cb51 afbc 0a28 d0bc 4ee6 5bbd 8931 0abd
00000300: 0972 22bd 3cd6 d33d 554e 20bd ad99 9abd
00000310: 7a2f 333d 129a c9bb f243 a53d 5de2 863d
00000320: f75b c63d 4c19 9ebd eacc 8a3d d92d b53d
00000330: 2936 55bd 2273 c63d 89d4 a13d c945 90bc
00000340: 9ea6 463d 555a 7ebd d3fb e4bd b542 f23c
00000350: 4d21 333c 2084 b9bd 4d9d ed3c fbe8 f9bd
00000360: b2ce a93d 6a5b cb3d 2134 623c f8bf 88bd
00000370: 1ace 6f3d d08e 1f3c 0d3e 6c3c 93b5 db3c
00000380: e665 733d bcc1 4bbd 5c6f 07bd 2fa6 d93c
00000390: b21f fab9 5636 9a3d 9f1f 7fbd 4534 c1bb
000003a0: 0826 8d3c 0490 dbbc 2f6a 4e3d f915 8c3b
000003b0: c00a dabd 907b cdbc c7f1 50bd 9673 723c
000003c0: 7009 eebc 3664 edbd e2d4 00bd 4b9e b6bc
000003d0: f6c0 12bd 2a61 ae3d c74a cabc 4dde 983d
000003e0: 6595 e93c 36e7 cbbd b413 9e3c 300c 9f3d
000003f0: df82 c6bd 905e 93bd f9ba 9a3d 0b84 913d
-0.0343656 -0.09754336 -0.029271912 -0.04071271 0.03092311 0.14551477 -0.068499945 0.061482634
0.11853011 0.058926884 -0.097373635 -0.040165275 -0.08979657 -0.067604646 0.058799166 -0.012248072
0.046799686 -0.06111464 0.016244054 -0.063540004 0.05265735 -0.045822255 -0.025967157 -0.091510884
0.0003397175 0.10019539 0.051188763 -0.090490304 0.07074627 -0.031063868 -0.1250788 0.09381586
-0.08683946 -0.03089814 -0.0950173 -0.07906149 0.015586438 0.037387114 0.023682367 -0.051432364
0.10427451 -0.01761442 -0.06899332 -0.046998467 0.10125383 0.10417014 -0.020437904 -0.06540323
0.06871686 -0.038391326 -0.10035519 0.0925881 0.151877 0.06587712 -0.14074554 0.120321125
-0.13014768 0.07594423 0.10693441 -0.022057155 0.26204476 0.022881757 -0.08402649 0.033285998
-0.0067639183 0.024468634 0.014256233 0.043019135 -0.12648906 0.08191787 -0.06690562 -0.056064755
-0.13862774 -0.037421867 0.0077946177 0.040097445 0.12971847 0.04339629 -0.056578595 -0.12362534
0.021919617 0.2618458 -0.056542717 0.047049675 0.25125408 0.09646921 -0.06179922 0.17417696
0.16741568 0.04647627 -0.026332952 -0.16283207 -0.15293275 0.1778451 -0.3368906 -0.009685882
0.041995168 0.025799321 -0.097366616 0.048600163 -0.04019084 -0.112923175 -0.050250776 0.10420672
-0.022213452 0.014852316 -0.04515256 0.06590213 0.06112771 0.03652171 -0.052360125 -0.086337335
0.004295705 -0.061736982 0.08651078 -0.101367004 0.04698765 -0.14872502 0.32856977 0.3466639
-0.16191177 0.86381656 0.16978762 -0.89184004 -0.06792553 -0.08129508 -0.003168492 0.09368822
-0.06696916 -0.06514621 0.0036021497 -0.0018227181 0.00975656 -0.11300164 -0.041195698 0.15505554
-0.46790951 -0.048969757 0.29624283 0.10832564 -0.0096119875 0.022146963 0.2778291 0.14712986
-0.56123817 -0.11853248 0.17210776 -0.5808961 0.354621 0.37891185 -0.36656585 -0.069637984
-0.022327907 -0.031840198 -0.27069253 0.074171774 -0.25719216 -0.029887429 -0.17566407 -0.22371458
-0.13052197 -0.123201035 -0.40733832 0.08690218 0.42397088 -0.17933483 0.30956715 0.32745093
-0.28568462 -0.0923175 -0.086391784 0.33567166 -0.04903016 -0.1264935 0.27078998 -0.07098565
-0.29971805 -0.2910156 0.099805824 0.09009851 -0.061795454 0.06752987 0.07018748 -0.105355985
-0.10686554 -0.10031228 -0.07819281 -0.05437329 -0.021401307 -0.025409717 -0.053686433 -0.033738647
-0.039659534 0.10343596 -0.039137203 -0.075488426 0.04374645 -0.0061524 0.080696 0.06586144
0.0968551 -0.07719669 0.067773655 0.08846635 -0.052053604 0.096899286 0.07901866 -0.017611401
0.048498742 -0.062097866 -0.11180844 0.029572824 0.0109332325 -0.09058404 0.02900567 -0.122026406
0.08291377 0.09929545 0.013806374 -0.0667724 0.058546163 0.009738639 0.014419091 0.02681998
0.05942335 -0.049745306 -0.033065185 0.0265685 -0.0004770733 0.07529895 -0.062286016 -0.0058961236
0.017230049 -0.02680207 0.050394233 0.0042750803 -0.10646582 -0.025083333 -0.051011827 0.014798066
-0.029057235 -0.11591379 -0.03145302 -0.022292277 -0.035828553 0.08514626 -0.02469386 0.074642755
0.02851362 -0.09956209 0.019296505 0.077659965 -0.096929304 -0.07195771 0.075551935 0.07105263

conv_block_2.0.bias f4 [10]
00000000: c649 9abd dbdb 613e 7bff 4dbd 8b2a 42be
00000010: 7ee2 91be eb8c 3e3d 0174 ab3e cf6d 083f
00000020: 64f0 4f3f 53fd 8dbd
-0.075336024 0.22056524 -0.050292473 -0.18961541 -0.28493112 0.04652111 0.3348694 0.53292555
0.8122618 -0.069330834

conv_block_2.2.weight f4 [10, 10, 3, 3]
00000000: 0ad5 c5bd 5737 1fbe 49a9 78bb 95d5 8bbd
00000010: ccea a3bd c725 d93b 1ded 37bc ffc2 52be
00000020: 7850 983d 9437 0cbe 5b84 90be 1780 13be
00000030: d112 00be c998 29bd e46c 06bf 43f0 ec3e
00000040: f5b3 9d3e 31a0 32bf aa90 8e3d 89cb 473b
00000050: 242b a73d 2e57 70bd 67ed 823d d813 263c
00000060: 08de a53c 1b5d 903d cf38 cebd 8c90 10be
00000070: 1ae7 313e 4788 1dbe 066f 08be d38a f23c
00000080: baec b3bd 239e aebd 6f6c a83d 024d 96bb
00000090: edfc 32be 0cb2 66be 5aff c3bd 4d10 82bc
000000a0: b1fe 00be b725 c5bd 2003 11bd 9b30 5cbe
000000b0: b10a 7fbe d470 93bd cda4 d0bd 154f f83d
000000c0: b9fd 41bc 72ea 9439 bc93 a73d 855a c43a
000000d0: 4d2f a5bd fc9a 8fbd 618a 96bd da69 9f3d
000000e0: b533 15be e8f2 f5be 09ed fcba 873f bf3e
000000f0: 3a96 c9be daaf 4b3e 43e0 ac3e d246 b43e
00000100: aab7 283d e311 b0bd 1082 81bd 9b1c 023d
00000110: 2ac4 d6bb ce51 c5bb 5ed5 d7bc 88b8 20be
00000120: 4eb8 b13e 1d9a f8bd 74db c93d 8ba5 813d
00000130: fc56 bbbe 34e6 5f3e 47b7 91be 27c5 e5be
00000140: 3eb7 85be 88e4 96bd 03dc 1b3d 1f07 85bd
00000150: 8aa5 a93c 97ad 94bd 8a6c 44bd 6055 6d3d
00000160: 48d0 273b 815f 0bbd e117 313d 5e65 933d
00000170: fd20 323d e56c c2bd b647 953d 4865 3b3d
00000180: 5ebb 093e 5c13 953c 7ef0 073e 886c a53d
00000190: 913a 6f3e e1ab b1be a52c 083c 44d6 31be
000001a0: 4046 d83e c599 72be 53b5 48bf 09db 413e
000001b0: 516a ca3c 7a3d a93c d180 9f3d bb59 9c3d
000001c0: fee6 7bbd 8cb7 29bd 7907 f5bc e760 acbd
000001d0: 26bd d5bc 3cfb f7bc 92ac 473e 19ec 0b3d
000001e0: c173 c83d cd1d 0ebd ec29 febd 8114 0f3e
000001f0: 435e 403d b5b1 c63c af48 abbd 4e30 383e
00000200: 993b 9c3d c73f b43c 01ac 543d ec09 ee3d
00000210: 2829 f53d ddca 653d 8059 543c 6165 d4bb
00000220: 642b 1f3d f2aa 4c3d 93e5 6ebd 1f81 cdbd
00000230: 7692 203c 3913 493d 2117 083d 9656 17bc
00000240: b48d 35be 24ea a73d 4c22 013e 9891 a8be
00000250: b190 393e 5e05 13bd e373 e53c 8dcc 793e
00000260: f249 cebd b9b2 433d 55a5 2ebe 9c5f ef3d
00000270: 37cd 5b3d 71bf 07bf e07b 5dbd 8212 823e
00000280: a033 14bf b5c2 873e a75c b4bd 8eaa 52be
00000290: 756c debc 0b62 1e3e 6b49 a03b a40e 9abe
000002a0: 3688 833d 697e ad3d ee7a e3bc ab3d 88bc
000002b0: 78c4 883d 10d7 cd3d 4c9f 89bd da10 9dbd
000002c0: 05a4 3e3d 4203 38bc 8b2a 2cbd 0739 b8bd
000002d0: bbc4 283e 6d77 6f3d 15e4 a9bd fe26 4abc
000002e0: 20d6 b33d 2e3c 5dbd 10ad 843c b28d 2f3e
000002f0: 4842 26bd 4663 26bf c8fe 323e 2282 10bf
00000300: 96df 1cbf 6dfc 193f 966a 68bd 22dd c5bd
00000310: ab9c 93bd 88df 9e3e 48c6 b8bb 3e19 a13a
00000320: eb11 c3bc 6769 b6bb 35f4 9d3d d120 673d
00000330: 5d15 183c 0abf 10bd 11eb 463d 201c 95bd
00000340: 671a 933d d396 733c 4368 833d df68 323d
00000350: 3f59 50be 67c2 1a3d a2af 5c3c bf2a d1bd
00000360: 8c11 f83d 301d 8cbc e0cb 81bd 1ffe 18bd
00000370: e848 093e 8f77 ddbd ad56 d23d c7b8 c63d
00000380: 1995 15bd debb 9f3d 3afc 353c 79e3 e2bd
00000390: b709 a13d eef7 e83c 189c 013c 52ca 9dbd
000003a0: ea56 da3c a324 40bd 3ce5 ecbe 8fd4 f0bd
000003b0: bb26 aa3e 692d 35be f48a ce3d 8736 d5bd
000003c0: 8f70 97bd 443e 523e 74de 873d 2744 9ebe
000003d0: 667a 1c3f d81e 0cbd 5d94 77be cf39 6c3e
000003e0: 268b c4bd ffed d53d dfce 92be 0162 3fbd
000003f0: 8aeb 92be d9e0 8abe c330 143d ba2c 0cbd
-0.096597746 -0.15548454 -0.0037942699 -0.06827847 -0.08003768 0.006626818 -0.011225966 -0.20582198
0.07437223 -0.13693076 -0.2822598 -0.14404331 -0.12507178 -0.041405473 -0.52509904 0.46277055
0.3080136 -0.6977568 0.06961186 0.0030486307 0.08162525 -0.05867689 0.06392937 0.010136567
0.020247474 0.070490085 -0.10069429 -0.1411764 0.17373314 -0.15384017 -0.13323602 0.029607212
-0.087853864 -0.08526256 0.08223807 -0.0045868168 -0.17479296 -0.22528857 -0.09570189 -0.015876913
-0.12597157 -0.09626334 -0.03540337 -0.21502917 -0.24906422 -0.07199255 -0.10187683 0.12124459
-0.011840277 0.00028403435 0.08182475 0.001498059 -0.080656625 -0.07011983 -0.073506124 0.077838615
-0.14570506 -0.48036885 -0.0019296716 0.37353155 -0.39372426 0.19891301 0.33764848 0.35210282
0.04119078 -0.085971616 -0.063236356 0.03176556 -0.0065541463 -0.006021715 -0.026346859 -0.15695393
0.34710926 -0.1213877 0.098563105 0.06330403 -0.365898 0.2186516 -0.28460142 -0.44876978
-0.26116365 -0.073678076 0.038051616 -0.06495499 0.020708818 -0.07259672 -0.047955073 0.057942748
0.0025606323 -0.034026626 0.043235663 0.07197069 0.04348849 -0.09493426 0.072890684 0.045750886
0.13450381 0.018197708 0.13275334 0.08077341 0.23362185 -0.34701446 0.008311425 -0.17366892
0.42241096 -0.23691471 -0.7840168 0.18931212 0.024708899 0.020659197 0.07788242 0.07634302
-0.06149959 -0.04143481 -0.02991079 -0.0841692 -0.02609117 -0.030271165 0.19499424 0.034160707
0.09787703 -0.03469639 -0.1241034 0.13972665 0.046964895 0.02425466 -0.08363473 0.17987177
0.07628555 0.022003068 0.05192185 0.11622986 0.119707406 0.05610167 0.012960792 -0.006481812
0.03885974 0.049967714 -0.058324408 -0.100343935 0.009800544 0.049090598 0.033225182 -0.009236952
-0.17729837 0.08198956 0.1261074 -0.3292358 0.18121602 -0.03589379 0.02800936 0.24394436
-0.10072698 0.047777865 -0.17055257 0.11688158 0.053662505 -0.5302649 -0.054073215 0.25404745
-0.57891273 0.26515737 -0.088067345 -0.20572874 -0.027151326 0.15467088 0.0048915646 -0.30089295
0.064224645 0.084713764 -0.027768578 -0.016630968 0.066780984 0.100507855 -0.067198366 -0.0766923
0.04654314 -0.0112312455 -0.04203276 -0.08995252 0.16481297 0.058463503 -0.08295456 -0.012338398
0.087810755 -0.05401247 0.016195804 0.17143896 -0.040590554 -0.6499523 0.17480004 -0.56448567
-0.61278665 0.60150796 -0.056742273 -0.09661318 -0.072076164 0.31029916 -0.0056388713 0.0012290848
-0.023812255 -0.005566764 0.077125944 0.05642778 0.009282437 -0.03533844 0.04856402 -0.07280755
0.0718277 0.014867502 0.06416371 0.043557044 -0.20346545 0.037783053 0.0134696085 -0.10213231
0.12112722 -0.017103761 -0.06337714 -0.037351724 0.13406718 -0.108138196 0.10270438 0.09703212
-0.036519144 0.07799505 0.011107499 -0.11078543 0.07863181 0.028438535 0.007910751 -0.07704605
0.026652772 -0.04690994 -0.46268642 -0.11759292 0.33232674 -0.17693104 0.10085097 -0.10410791
-0.07394516 0.20531565 0.066342264 -0.3091137 0.61124265 -0.034209102 -0.2417769 0.23068927
-0.09596853 0.10445785 -0.28673455 -0.046724323 -0.28695327 -0.2712467 0.036179315 -0.034222342

conv_block_2.2.bias f4 [10]
00000000: d6fb 553e cd67 6cbe e420 583e 5d4a 803d
00000010: b51d 99bd 7fdb 603e 1a4e ff3d 6522 b6bd
00000020: 5acc 593b f623 13be
0.20896849 -0.23086472 0.21106297 0.06264184 -0.07476369 0.21958731 0.124660686 -0.08893279
0.0033233375 -0.14369187

classifier.1.weight f4 [10, 490]
00000000: 024a bbbc 160d 25bd 0621 893d a0ad 67be
00000010: 3eb2 0cbc 19b4 96bb 3f52 843d abdf 2e3d
00000020: 49d3 353e a7fc 033e 37dc 52be 8301 983d
00000030: e728 fe3d 7894 0e3e eadd 2e3d 1f70 d23d
00000040: 388b d53d f8af c6bd 53ed ed3d d5e7 d03d
00000050: 2f57 c1bd 0c7a 1cbd 044d b03d d325 11bd
00000060: c1a8 1bbd c035 643d d336 b13c d72e 81bd
00000070: 55c2 cebd 9e96 edbb dfaf 86bd f369 5cbd
00000080: 5d06 203e 6b81 e3bd 5198 103a ec79 fb3c
00000090: 7705 fbbd bc87 c5bc aba0 bbbd 9e58 24bd
000000a0: 0efb 413e b2a8 94bd 9c72 933d 34d9 09be
000000b0: c0da 3bbe 72d0 4bbd 0c7d 2fbd 2afc 8a3e
000000c0: 8b97 76bd 3565 5c3d b56c 7b3d efc7 83bd
000000d0: dee6 13be 4b2f 273d f124 18bd 463b a83d
000000e0: da5a ad3c 29a3 70bd 750b 0ebe 347c 193d
000000f0: b8a3 14be 8ae4 5b3d 5b2e a13c 6f93 b23d
00000100: b2f7 573e 7b41 52bd 2588 333d 998e 75bd
00000110: e6b9 b03e aefe 823c 605a a03d 55ec b43b
00000120: 3474 a5bc c442 45bd 2e75 62bc a8d7 843e
00000130: 08b1 543d f2f1 363d 1973 80bd 9f5e c2bd
00000140: d289 82bd 4165 713b 6652 e03d fe74 0a3d
00000150: a899 edbd a36a cb3c 7de9 4fbd 3a30 8ebd
00000160: 4cf8 45bd 7d85 88bd dd1f 5f3c 9e23 a4bd
00000170: 2b52 de3c 8080 2c3e 9902 ebbd e8ab ffbd
00000180: f2f0 ecbc 8983 47bc 125e 703d bac0 003c
00000190: 250f 0b3e 694b fcbb e792 8d3d 71f3 d13d
000001a0: 9c2a 223c 5f50 4d3e 2e43 353d ddfa f63b
000001b0: 766d 483d cde4 c9ba 379b ab3d a2f7 413d
000001c0: 3e13 fa3c 09f0 d23d 4342 883e f64a e4bb
000001d0: 7009 de3c 2e42 8abd 2ba5 10be 40c1 acbd
000001e0: d3ff f6bd 455b 003e 74ff 16be aa5d 0ebe
000001f0: 3146 973d a8c3 14be 67fc 84be fa30 b7bc
00000200: 4b15 a13d 9933 2ebd 394c 24be 94a1 b23d
00000210: f463 893d 502e 00be 4a4a 8a3d 2513 263d
00000220: 16d9 8abd 7e1e 09be 3e0b 6ebd 2464 7b3d
00000230: a29d 013c 9df9 ad3d 7296 da3c 7ee2 babd
00000240: ec07 73bd cbd5 14be ab54 fcbd a8f6 713e
00000250: 3150 c1bd ad2b 8fbd 9dfb 96bd b918 c13d
00000260: 375b 5b3d 6479 e93a 2134 e4bd 748a b6bd
00000270: d98d 04be 1323 88ba 9c02 2c3d 0c4d c4bd
00000280: be01 b9bd dfad b4bd f6e3 c7bb 2902 a0bd
00000290: 5003 193d c443 8bbd ba83 05bb 2e60 fe3d
000002a0: 5dbb 9b3d fc5c e03d 6c68 b3bc 74c6 1b3c
000002b0: 1fed b83c e4a1 823d deef 303e 3acd 25bc
000002c0: 68da 383e d3f2 65bd c71c b8bd 8c93 6ebd
000002d0: 2b27 57bc 97d4 2e3e 928b 00be 03bd 6f3e
000002e0: aba1 babd 5c70 babd d369 5bbc ccbc bd3a
000002f0: c339 de3d 2a64 ebbc 73af e1bb 6589 07be
00000300: 811b 26bc 1f3a e7bd 78de 71bd 85f4 2e3d
00000310: ddfe 013c d3f3 703b f6d8 0abd db5c 10bd
00000320: e9fe 073d ec26 e73b b76a 823c dcaa 223c
00000330: f381 f73b dc05 653e f1f9 323e dde2 ea3d
00000340: 5c2b 01bb 9a07 edbb 60de 8c3d 0418 053e
00000350: 8cb9 953c 7d67 073e 9866 173d 550a 703e
00000360: e136 0a3e ac00 e43d a924 9d3c 256e 30be
00000370: 8ef8 09bc 587c 193d 1cb0 0b3e 2772 b83b
00000380: 03a6 613d 4791 20bd e86f cebd 40ca f23c
00000390: ae8d 53bd 8db8 d5bc 98fd d9bd 3820 b6bb
000003a0: 8f67 a7bd 198d a1bc af96 5ebc 1f22 433d
000003b0: a6b2 b4bc 971c 96bd ca1a 203c 7fe0 acbc
000003c0: 1bae c63b 4b29 aebd 6495 d3bd 60d2 87bd
000003d0: c6ee ab3b 87d5 5cbb 9685 ee3d 1da6 45bd
000003e0: 759d 823d e89f 423d 2478 9e3e 67dc a13d
000003f0: a47d e1bc ffef 4abd 2073 4d3d 1fd9 cf3d
-0.022862438 -0.040295683 0.06695752 -0.22624826 -0.008587418 -0.004599106 0.06461 0.042693775
0.1775638 0.12889348 -0.20591818 0.07422163 0.12410145 0.13923824 0.042692102 0.10275292
0.104269445 -0.09701532 0.116175316 0.102004685 -0.09440457 -0.03820233 0.086084396 -0.035436463
-0.038002733 0.055715322 0.021632588 -0.06307762 -0.1009566 -0.007250621 -0.065765135 -0.05381198
0.15627427 -0.11108669 0.0005515861 0.030697785 -0.12256902 -0.024112575 -0.09161504 -0.040123574
0.18943426 -0.072587386 0.071995944 -0.13461763 -0.18345165 -0.049759336 -0.042843863 0.2714551
-0.060203116 0.053807456 0.061382968 -0.06434619 -0.14443538 0.040816586 -0.037144605 0.082144305
0.021161485 -0.05874935 -0.13871558 0.037471965 -0.14515579 0.05368475 0.019675424 0.08719527
0.21090582 -0.05133198 0.04383101 -0.059950445 0.3451683 0.015990581 0.07829738 0.005521337
-0.020197012 -0.048159376 -0.013821883 0.25945783 0.051926643 0.04466433 -0.06271953 -0.09490704
-0.063739434 0.0036834034 0.10953216 0.03380298 -0.11601573 0.024831122 -0.05075978 -0.06942792
-0.048332497 -0.06666086 0.013618437 -0.08014606 0.02713879 0.16845894 -0.11475105 -0.124839604
-0.028923485 -0.0121773565 0.058683462 0.00785845 0.13579996 -0.0076994193 0.06912785 0.10251511
0.009897854 0.2005019 0.04425352 0.0075372295 0.048932515 -0.0015403271 0.08379214 0.0473553
0.030526754 0.10299689 0.26613054 -0.006966944 0.02710411 -0.06750904 -0.14125507 -0.08435297
-0.12060513 0.12534817 -0.14745885 -0.13902918 0.07386435 -0.14527762 -0.25973818 -0.022362221
0.078653894 -0.042529676 -0.16044702 0.08722225 0.06708518 -0.12517667 0.06752451 0.0405456
-0.06779687 -0.13390538 -0.05811619 0.0613748 0.007911118 0.084948756 0.026683066 -0.09125231
-0.059333727 -0.1453468 -0.12320837 0.23629248 -0.094391234 -0.06990752 -0.0737221 0.094285436
0.053553786 0.0017812666 -0.11142755 -0.089131266 -0.12944736 -0.001038643 0.041994676 -0.09585008
-0.090335354 -0.08822226 -0.006100173 -0.07812912 0.037356675 -0.06800035 -0.0020372705 0.124206886
0.07604096 0.10955235 -0.021900378 0.009507764 0.022574006 0.063785344 0.17279002 -0.010119731
0.18052065 -0.05613978 -0.08989864 -0.05824618 -0.013131897 0.17073284 -0.12553242 0.23411946
-0.09112867 -0.09103462 -0.01339193 0.0014475822 0.10850861 -0.028734285 -0.0068873703 -0.13236006
-0.010138393 -0.112903826 -0.059050053 0.04271366 0.007934299 0.0036766424 -0.033898316 -0.035244804
0.033202086 0.0070542004 0.015920026 0.009928431 0.007553333 0.22365516 0.17478158 0.11469052
-0.0019709682 -0.007233572 0.06878352 0.12997442 0.018276952 0.13223071 0.036963075 0.23441441
0.13497497 0.11132941 0.01918252 -0.17229517 -0.008421076 0.0374721 0.13641399 0.0056288424
0.05508996 -0.039201047 -0.10079938 0.029637456 -0.05164879 -0.026088977 -0.10644072 -0.00555804
-0.08174049 -0.0197206 -0.01358573 0.047639962 -0.022057842 -0.07329672 0.009772012 -0.021103142
0.0060632355 -0.0850397 -0.103312284 -0.06631923 0.00524697 -0.0033696608 0.11646573 -0.04825412
0.06377689 0.04751578 0.30951035 0.079033665 -0.02752573 -0.049545284 0.05015862 0.101488344

classifier.1.bias f4 [10]
00000000: 77fb 593d bab5 0cbe 0e33 da3e 4478 a3bc
00000010: 711d c4be d06b 3bbe 0e54 203e f6f7 eeba
00000020: e91a 213e f9bf d6bd
0.05321833 -0.13741198 0.42617077 -0.019954808 -0.38303712 -0.18302846 0.15657064 -0.0018231857
0.15732922 -0.10485835
