Models/pytorch_computer_vision_MNIST_handwritten_Number_prediction_model.pth (torch, 36324 bytes, 10 tensors)

block_1.0.weight f4 [10, 1, 3, 3]
0	0x3e8bf4dd	0.27335253
1	0x3ea07da0	0.31345844
2	0xbdc98f47	-0.09841781
3	0x3e73a9ac	0.23795193
4	0x3eac48cc	0.3364929
5	0xbeecb9ce	-0.46235508
6	0xbe1372eb	-0.14399306
7	0x3e6ec805	0.23318489
8	0xbe13317f	-0.1437435
9	0x3e52438b	0.20533578
10	0x3e6b6bcb	0.22990339
11	0xbec1fd68	-0.37888646
12	0x3ed4b1ba	0.41541845
13	0x3ed039ff	0.40669248
14	0xbd981865	-0.07426528
15	0x3e964c4f	0.29355094
16	0x3d0b6472	0.03403134
17	0x3debc710	0.115125775
18	0xbe9b0cc7	-0.30283186
19	0x3d71f89c	0.059074983
20	0xbde216e2	-0.11039521
21	0x3e1907b7	0.14944349
22	0x3ea63082	0.32458884
23	0x3dfd527f	0.123692505
24	0x3e420fb3	0.18951301
25	0x3e010323	0.12598853
26	0x3e9547a4	0.2915622
27	0x3e667462	0.22505334
28	0x3ef1bee4	0.4721595
29	0x3efe6aa1	0.49690726
30	0xbda2c420	-0.07947564
31	0xbdfaa386	-0.12238221
32	0xbe4928a0	-0.19644403
33	0xbecdbb59	-0.40181997
34	0x3e02a243	0.1275721
35	0xbdc2f99d	-0.09520266
36	0xbe1d6b3a	-0.15372935
37	0x3e444636	0.19167408
38	0x3c3a4531	0.011369036
39	0xbe88617c	-0.26636875
40	0x3db961aa	0.09051831
41	0xbdf8c3ff	-0.12146758
42	0x3eb6e3e0	0.3572073
43	0x3ee101e2	0.4394675
44	0xbe77faec	-0.24216813
45	0xbec7ad3f	-0.38999364
46	0xbe638ac9	-0.22220911
47	0x3eb4d9a2	0.3532229
48	0x3eae36d1	0.34026197
49	0x3e5d8c5d	0.21635576
50	0x3ee03275	0.43788496
51	0x3d34bed0	0.044127285
52	0xbe49bbe1	-0.19700576
53	0xbe23c5f3	-0.1599348
54	0x3e89a3a5	0.26882663
55	0xbe8e9660	-0.27849102
56	0xbd03df27	-0.032195237
57	0xbea802e9	-0.3281472
58	0x3de353b9	0.11099953
59	0xbe85ed97	-0.2615783
60	0xbea7481f	-0.32672212
61	0x3e6b6707	0.2298852
62	0xbe0efe7f	-0.1396427
63	0xbecf4a50	-0.40486383
64	0xbe24352c	-0.16035908
65	0xbeaa3009	-0.33239773
66	0xbd6706e6	-0.056403063
67	0xbe33e9c5	-0.17569645
68	0xbe0066c6	-0.12539205
69	0x3f0e4553	0.5557453
70	0xbd7a9505	-0.061177272
71	0x3f0bee6c	0.5466068
72	0x3f41f309	0.7576147
73	0x3e8ad89e	0.2711839
74	0x3e932baa	0.2874425
75	0xbe853e6d	-0.2602419
76	0xbe74e85d	-0.23916765
77	0xbe333390	-0.17500138
78	0xbe074652	-0.13210419
79	0xbed35d9c	-0.41282356
80	0xbef4c80c	-0.47808874
81	0xbebd7c2c	-0.37008798
82	0x3e3daac7	0.18522178
83	0x3eda7fde	0.4267568
84	0xbdfac294	-0.12244144
85	0xbdfed47d	-0.12442873
86	0xbd83f2e1	-0.0644281
87	0x3a7e9866	0.000971204
88	0xbe9dc730	-0.3081603
89	0xbe98716b	-0.2977403

block_1.0.bias f4 [10]
0	0x3e12f484	0.14351088
1	0xbd78dfbf	-0.060760256
2	0x3c837e9a	0.01605158
3	0x3d46c05e	0.0485233
4	0xbd39e955	-0.04538854
5	0x3e3bac47	0.18327437
6	0xbd907832	-0.070541754
7	0x3e5ab38c	0.21357554
8	0x3e9bbce2	0.30417544
9	0x3ccf7d6f	0.025328366

block_1.2.weight f4 [10, 10, 3, 3]
0	0xbe96d72d	-0.2946104
1	0xbbdf0db6	-0.0068070544
2	0x3dc28965	0.09498862
3	0xbe86f526	-0.26358908
4	0xbd858c7c	-0.06520936
5	0x3e853d80	0.26023483
6	0x3d94865d	0.0725219
7	0x3df8dbad	0.12151275
8	0x3d9d13f9	0.07669825
9	0xbedeaf0b	-0.43492922
10	0x3c98961a	0.018626262
11	0x3e5a7dc9	0.21337046
12	0xbe4d7a44	-0.20066172
13	0x3cd7788d	0.0263026
14	0x3de13f35	0.10998384
15	0xbde2768f	-0.110577695
16	0x3de8a3ce	0.11359368
17	0x3e5b167b	0.21395294
18	0xbdf3fc8e	-0.11913405
19	0x3e34eaf7	0.17667757
20	0x3e697319	0.22797813
21	0xbd03ee4e	-0.032209687
22	0x3d8ceea6	0.06881456
23	0x3cb6f0ea	0.022331674
24	0xbda4d88a	-0.08049114
25	0x3d2718e7	0.040795233
26	0x3ca76516	0.020433944
27	0xbde43502	-0.11142923
28	0x3bf0ce00	0.007348776
29	0x3df5446f	0.11975943
30	0x3ba1884b	0.0049295775
31	0x3c263f6a	0.010146955
32	0x3e8315fe	0.25602716
33	0xbcda9522	-0.02668244
34	0x3ddba23f	0.10724305
35	0x3d82653a	0.06366964
36	0x3dc329d6	0.09529464
37	0x3ccf5700	0.02531004
38	0x3dc84169	0.09778101
39	0x3d540e74	0.051771596
40	0x3d991060	0.074738264
41	0x3dbe3f7f	0.09289455
42	0xbbcc75b2	-0.0062396163
43	0xbdbc124b	-0.091831766
44	0x3e1ec4b2	0.15504721
45	0xbcfefb43	-0.03112567
46	0x3dfd70ba	0.123750165
47	0x3e0ae6fd	0.13564678
48	0x3dd1ee35	0.102505125
49	0x3e89b9e3	0.26899633
50	0xbd37957d	-0.044820298
51	0x3e4216c7	0.18954001
52	0x3cd5eca8	0.026113823
53	0x3cb796a3	0.022410696
54	0x3da0e93e	0.078569874
55	0xbd9ff8fc	-0.07811162
56	0xbdad39f7	-0.084583215
57	0x3ce0f4f0	0.027460545
58	0x3d1caf76	0.03825327
59	0x3d78ac5b	0.060711246
60	0xbd82711c	-0.0636923
61	0x3dcca053	0.09991517
62	0xbd64aeef	-0.055830892
63	0x3d97a3c6	0.07404284
64	0xbda496e6	-0.08036594
65	0xbe587b36	-0.21140751
66	0x3d8a7b94	0.06761852
67	0x3ca9139a	0.02063923
68	0xbdd45ac8	-0.10368878
69	0x3ceeb2ff	0.029138086
70	0xbde1e426	-0.11029844
71	0xbe3a6466	-0.18202361
72	0xbde86ebf	-0.11349248
73	0xbe6fa5fa	-0.23403159
74	0xbe363921	-0.1779523
75	0xbe3f7e22	-0.1870046
76	0xbddb4ac5	-0.107076205
77	0xbd5febf1	-0.05466837
78	0x3d6c5ad7	0.05770382
79	0x3ce7e6e9	0.028308349
80	0x3d8c33a8	0.0684579
81	0xbdf845d5	-0.121226944
82	0xbe086318	-0.13319051
83	0xbd67d3de	-0.056598537
84	0x3d856e68	0.06515199
85	0xbddbca86	-0.10731988
86	0x3de7be6a	0.113156155
87	0xbd90d077	-0.070710115
88	0xbd777e7f	-0.06042337
89	0x3e03d9f8	0.12876117
90	0x3d9999a0	0.07500005
91	0x3e0aa78e	0.1354048
92	0xbd5d92e3	-0.05409516
93	0x3dbb0007	0.091308646
94	0x3e4a390d	0.19748326
95	0x3cf122ea	0.029435594
96	0xbdb25318	-0.08707255
97	0x3e7dcb8e	0.24784681
98	0x3d8bcffa	0.06826778
99	0x3d954a34	0.07289544
100	0xbd7e2c28	-0.06205383
101	0xbe3d24df	-0.18471096
102	0x3e15183d	0.14560027
103	0x3e20416b	0.15649955
104	0x3c5ba122	0.013405116
105	0x3be16c6d	0.0068793804
106	0x3e911228	0.28334165
107	0x3e5824c5	0.21107776
108	0x3df824c3	0.12116387
109	0xbdd69919	-0.1047842
110	0xbe716711	-0.23574473
111	0x3ddbd25a	0.10733481
112	0x3c57363c	0.013135489
113	0xbe2de214	-0.16980773
114	0x3c39874c	0.011323761
115	0x3d0bc775	0.034125764
116	0x3e0b6160	0.13611364
117	0xbc08b42e	-0.008343739
118	0x3ded0124	0.11572483
119	0xbe10758e	-0.14107344
120	0x3ba27033	0.004957223
121	0x3d952869	0.07283098
122	0xbd933e9f	-0.071896784
123	0xbce3a931	-0.027790638
124	0xbcd73b20	-0.02627331
125	0xbe3895b8	-0.18025863
126	0x3e23f0dd	0.16009851
127	0x3d7f9bb0	0.062404335
128	0xbd71bd37	-0.05901834
129	0xbcf1356b	-0.029444417
130	0xbb8f6ada	-0.0043767514
131	0x3e0beff7	0.13665758
132	0xbd180aa6	-0.03711953
133	0xbcaf0fcd	-0.02136984
134	0x3ce16b7c	0.027517073
135	0xbd39b248	-0.045336038
136	0x398d02f8	0.00026895828
137	0xbe41f3e2	-0.1894069
138	0xba04d56a	-0.00050672016
139	0xbc760cdf	-0.015017717
140	0xbe477191	-0.19476916
141	0x3dc3e816	0.09565751
142	0xbd8ec68f	-0.06971466
143	0xbe02211e	-0.12707946
144	0x3c6b220d	0.01435138
145	0xbd470149	-0.04858521
146	0x3c3a2b72	0.011362897
147	0xbcb85822	-0.022502962
148	0x3cb4222d	0.021988953
149	0x3d860225	0.06543378
150	0x3da2890b	0.07936295
151	0xbdaef896	-0.08543508
152	0xbbeac820	-0.00716497
153	0xbccb6a60	-0.024830997
154	0x3c741504	0.014897589
155	0x3d16b65a	0.036794998
156	0xbe08d65f	-0.13363026
157	0x3dc32a64	0.0952957
158	0x3da1413d	0.07873771
159	0xbe7bfbd4	-0.24607784
160	0xbdb1af2d	-0.0867599
161	0x3b88ad38	0.00417104
162	0xbe6ad622	-0.22933248
163	0x3d781447	0.060566213
164	0x3e317a0d	0.17331715
165	0xbebf8edb	-0.37413678
166	0xbe13482d	-0.14383002
167	0xbc7d8bf1	-0.015475259
168	0xbe17b036	-0.14813313
169	0xbe3cb230	-0.18427348
170	0xbe8ba70c	-0.27275884
171	0xbce6a7e9	-0.028156238
172	0x3c911118	0.017708346
173	0xbd446c66	-0.04795494
174	0xba399eaf	-0.00070808356
175	0xbd8560b1	-0.06512583
176	0xbc0b6c41	-0.008509696
177	0x3d6becba	0.057598807
178	0x3d82ff24	0.063963205
179	0x3d9e0b72	0.07717027
180	0xbdab4236	-0.08362238
181	0xbd0331eb	-0.032030027
182	0xbd65974a	-0.056052484
183	0xbda7cd6f	-0.0819348
184	0xbc85c9b9	-0.01633154
185	0x3d1642ee	0.036684923
186	0xbd56327e	-0.052294247
187	0xbd904e31	-0.07046164
188	0xbd2b7955	-0.041863758
189	0xbdcedd30	-0.10100782
190	0xbd8e56bd	-0.06950138
191	0x3da8093f	0.082048886
192	0xbdd4810c	-0.10376176
193	0xbcc616cc	-0.024180792
194	0x3d751598	0.059835047
195	0x3db2721f	0.08713173
196	0xbd588876	-0.052864514
197	0xbdb4b01b	-0.08822652
198	0x3d569764	0.05239047
199	0x3d73ecd7	0.05955204
200	0xbbb2db30	-0.005458258
201	0x3d781caf	0.06057423
202	0x3b4d7a61	0.003135346
203	0x3cbbd6b2	0.022929523
204	0x3c02a627	0.007974184
205	0x3d36b917	0.04461011
206	0xbdaa6a07	-0.08321004
207	0x3c8b0c19	0.016973542
208	0xbdcb8d42	-0.09939052
209	0x39d03002	0.0003970862
210	0x3dbf5fcf	0.09344446
211	0xbd741611	-0.059591357
212	0x3d3f9e3d	0.046781767
213	0xbd7be458	-0.061497062
214	0xbd26e0b5	-0.04074164
215	0xbc9ee88f	-0.019398002
216	0x3bb5ec84	0.0055518765
217	0xbd793148	-0.060838014
218	0x3d6165f3	0.055028867
219	0xbda72d94	-0.0816299
220	0xbdd8fd30	-0.10595167
221	0x3b2c9b13	0.0026337549
222	0xbda4bc6c	-0.08043751
223	0xbd2f16b7	-0.042746272
224	0x3ccfd6ef	0.025371043
225	0x3d9b3f25	0.07580403
226	0xbcfb6560	-0.030687988
227	0x3d8f242f	0.06989323
228	0xbdbff89d	-0.09373591
229	0x3d58bf59	0.05291686
230	0xbd67d512	-0.056599684
231	0xbdb1352d	-0.086527206
232	0x3d975d5a	0.07390852
233	0x3d95298a	0.072833136
234	0xbc1f7437	-0.009732298
235	0x3c82697c	0.01591944
236	0xbcace00d	-0.02110293
237	0x3da5b2e0	0.08090758
238	0x3d8c614e	0.06854497
239	0x3d83de5b	0.06438895
240	0xbda9c9f2	-0.08290471
241	0xbd2078d9	-0.03917775
242	0x3b872407	0.004124168
243	0xbdac6530	-0.084177375
244	0x3d420508	0.04736808
245	0xbc97242b	-0.018449863
246	0xbd988c3f	-0.07448625
247	0xbd20a4aa	-0.039219536
248	0xbdd035e5	-0.101665296
249	0x3d845c6a	0.06462939
250	0x3d12d240	0.03584504
251	0xbdbb2c3e	-0.09139298
252	0xbc2b5548	-0.010457344
253	0x3c1276a0	0.008939415
254	0x3cbb5c54	0.022871174
255	0xbd39783d	-0.045280684

block_1.2.bias f4 [10]
0	0x3db16abc	0.08662936
1	0x3dc65e92	0.096860066
2	0xbd3c9bf7	-0.046047177
3	0x3c5a841a	0.0133371595
4	0x3d9d0c03	0.07668307
5	0x3cbd98b9	0.023144113
6	0xbd44dee3	-0.048064124
7	0xbd05d03b	-0.032669287
8	0x3df9f951	0.122057565
9	0xbca2768f	-0.019831924

block_2.0.weight f4 [10, 10, 3, 3]
0	0x3d594769	0.053046618
1	0xb7dea5bf	-2.6541644e-05
2	0xbe336169	-0.17517628
3	0x3e4445e0	0.1916728
4	0x3e7392b7	0.23786436
5	0xbe512bb1	-0.20426823
6	0x3ef6359f	0.48087785
7	0x3e38aaa5	0.18033846
8	0xbe603abd	-0.21897407
9	0xbe7d4c11	-0.24736048
10	0xbe226fee	-0.1586301
11	0x3e66d686	0.22542772
12	0xbe588281	-0.21143533
13	0x3dbb088f	0.09132492
14	0x3d6b044e	0.057377152
15	0x3cfa588a	0.030559797
16	0x3e10b231	0.14130475
17	0x3c576240	0.013145983
18	0x3d20cb94	0.039256647
19	0x3d98eb87	0.07466798
20	0x3d29e56a	0.041478552
21	0x3ccfa64a	0.025347847
22	0xbd9915f5	-0.07474891
23	0x3c38bde4	0.011275742
24	0xbcabbb4f	-0.02096334
25	0x3d1c2765	0.038123507
26	0x3c6840f9	0.014175647
27	0xbdeff97e	-0.11717509
28	0xbd2ee251	-0.0426963
29	0x3d22fe50	0.039793313
30	0xbe976450	-0.2956872
31	0x3d7d23f5	0.06180187
32	0xbe0769a1	-0.13223888
33	0x3eb039a6	0.34418982
34	0x3ea45d7a	0.32102567
35	0xbdea4fc4	-0.11440995
36	0x3da12392	0.078681126
37	0xbc1c5c1c	-0.009543445
38	0xbb9049f6	-0.004403348
39	0xbcca6283	-0.024705177
40	0x3dbacd78	0.09121221
41	0x3db60de3	0.088893674
42	0x3d0e9c7e	0.03481721
43	0x3de34eb2	0.11098994
44	0xbd9d6265	-0.07684783
45	0xbe19d13e	-0.15021226
46	0x3e47642e	0.1947181
47	0x3dac51c1	0.08414031
48	0x3d68c9df	0.056833144
49	0x3e3ebf85	0.18627746
50	0xbe8e4a6c	-0.27791154
51	0xbc0d54bb	-0.008626158
52	0xbcc297a8	-0.023753956
53	0xbec2a706	-0.38018054
54	0x3bb9735c	0.005659504
55	0x3e60d3d3	0.21955805
56	0xbdf8112e	-0.12112652
57	0x3ea3f17d	0.32020178
58	0x3e46a8d9	0.19400348
59	0xbe8b9a6f	-0.2726626
60	0xbd7f69b1	-0.062356655
61	0xbe99c379	-0.30031946
62	0xbe4ea4af	-0.2018001
63	0x3dbe89b4	0.093036085
64	0x3bbe143a	0.005800751
65	0xbbf8a515	-0.0075880387
66	0xbda09f03	-0.07842829
67	0xbe3c666a	-0.18398443
68	0xbdf7f0a8	-0.121064484
69	0xbea8ded6	-0.3298251
70	0xbe5ab87a	-0.21359435
71	0xbd9df1be	-0.07712124
72	0xbc87f3a9	-0.016595678
73	0xbd16e2ed	-0.036837507
74	0x3cc711ce	0.024300482
75	0x3d3357c4	0.04378487
76	0x3db029a3	0.086016916
77	0xbe81bee1	-0.25340942
78	0x3eb7d17e	0.35902017
79	0x3e55854c	0.2085163
80	0xbe20e7ca	-0.1571342
81	0xbbe1c419	-0.0068898317
82	0xbd8b4f77	-0.06802266
83	0x3d63146b	0.055439394
84	0x3dd263bb	0.10272928
85	0x3d8fdb83	0.070242904
86	0xbdad540e	-0.08463298
87	0x3d4c8cf6	0.04993912
88	0x3c7afc74	0.015318979
89	0x3d0411a4	0.032243386
90	0x3db29c25	0.087211885
91	0xbe0b50e0	-0.1360507
92	0x3d6907c7	0.056892183
93	0x3e16ed3b	0.14738934
94	0xbd95dbe3	-0.07317331
95	0xbd7fe5cb	-0.062475007
96	0x3e1f690a	0.15567413
97	0xbd394a55	-0.045236904
98	0x3e1772b8	0.14789855
99	0xbc846651	-0.01616207
100	0x3dac4219	0.084110446
101	0x3d467ee0	0.04846084
102	0xbc6e8b11	-0.014559523
103	0x3c8bd267	0.017068101
104	0xbb532bdb	-0.0032222185
105	0x3db248a1	0.08705259
106	0x3d2a9e8c	0.04165511
107	0xbcb1c503	-0.021700388
108	0xbd54f514	-0.051991537
109	0xbd0cdc2a	-0.034389652
110	0xbdc54bb1	-0.096335776
111	0xbd88ea1b	-0.06685277
112	0xbdb2d5a8	-0.08732158
113	0x3d1619d8	0.03664574
114	0x3da06311	0.078313954
115	0xbd88ccae	-0.066796646
116	0x3d3148b9	0.043282244
117	0xbd3d9515	-0.046284754
118	0xbca6aea6	-0.02034695
119	0xbdca679e	-0.09883045
120	0xbd88b442	-0.066750064
121	0xbdbc9f7c	-0.09210107
122	0x3d8c0fc6	0.06838946
123	0xbe17c732	-0.1482208
124	0xbda72c0c	-0.08162698
125	0xbde4ba57	-0.11168354
126	0xbbb84d6d	-0.0056244642
127	0xbc793fc7	-0.01521296
128	0xbd747d66	-0.0596899
129	0xbd74197d	-0.05959462
130	0x3db1f518	0.08689326
131	0xbc02844b	-0.007966111
132	0xbd69a16d	-0.057038713
133	0x3d6eef4b	0.058333676
134	0xbc5ed88d	-0.013601434
135	0xbcd3dc0d	-0.025861764
136	0xbdac9522	-0.08426882
137	0xbdfeaddf	-0.12435507
138	0x3b09af80	0.0021009147
139	0x3c62a277	0.01383268
140	0x3d2d33d1	0.042285744
141	0xbdd73297	-0.10507696
142	0x3df5d920	0.12004304
143	0x3c0a529c	0.008442547
144	0x3d393bf7	0.045223203
145	0xbdb6c710	-0.08924687
146	0xbb184b78	-0.0023238342
147	0xbce435d8	-0.027857706
148	0x3c5a2b7f	0.013316034
149	0xbc8016b8	-0.015635833
150	0x3dcaae81	0.09896565
151	0xbdcb2c7b	-0.09920593
152	0x3c4a96e9	0.012365081
153	0x3d2d612b	0.042328995
154	0xbd7f0a14	-0.06226547
155	0x3d2979a4	0.04137577
156	0xbdbdb252	-0.092625275
157	0x3c130b61	0.008974881
158	0xbd02f223	-0.0319692
159	0x3d9aec7b	0.07564636
160	0x3d314b9a	0.04328499
161	0x3d8f40bc	0.06994769
162	0xbb6f4e1b	-0.003651506
163	0x3c582e0e	0.013194574
164	0xbdd9b117	-0.1062948
165	0xbc8d73cf	-0.017267136
166	0x3c1cfe0d	0.009582055
167	0x3db132b2	0.086522475
168	0xbda432e2	-0.080175176
169	0x3d70dd32	0.0588047
170	0x3b564d4e	0.0032699886
171	0x3c44620b	0.011986266
172	0xbc919e91	-0.017775806
173	0x3ba2f2b7	0.0049727815
174	0x3cf1413f	0.029450057
175	0x3d9ad5b7	0.07560294
176	0x3dbcb79b	0.092147075
177	0xbbf752c5	-0.0075477087
178	0xbdc858fb	-0.09782597
179	0xbd2e5a9a	-0.042566873
180	0x3e223263	0.15839534
181	0x3d85233b	0.0650086
182	0x3e1bbfec	0.15209931
183	0xbe0c7177	-0.13715158
184	0xbe56b20b	-0.20966356
185	0x3d96c339	0.073614545
186	0x3e8bc068	0.27295232
187	0x3dbfdada	0.093679145
188	0x3c97c8d5	0.018528381
189	0x3e24b62e	0.16085121
190	0xbe5c2811	-0.21499659
191	0xbe958ea1	-0.2921038
192	0x3eb6de91	0.3571668
193	0x3ec7b721	0.39006904
194	0x3db14540	0.086557865
195	0xbe18bcee	-0.14915821
196	0x3e746256	0.23865637
197	0x3e63ec23	0.22258048
198	0xbd6a3c9d	-0.05718671
199	0xbcf4c2be	-0.029878017
200	0xbd751496	-0.059834085
201	0xbd2e086d	-0.042488504
202	0x3daa2b4a	0.08309038
203	0xbc5f6932	-0.01363592
204	0x3cef5a17	0.029217763
205	0xbdd6cfbf	-0.10488843
206	0x3d366bfc	0.044536576
207	0x3db040b7	0.086060934
208	0xbdef13c5	-0.116736926
209	0x3cda0164	0.026611991
210	0xbd8d6769	-0.069044895
211	0xbe7312e9	-0.23737682
212	0xbe694e80	-0.22783852
213	0xbc1bd5ef	-0.009511455
214	0x3e9c1e28	0.30491757
215	0x3e8babfe	0.27279657
216	0xbdc77bfa	-0.097404435
217	0xbc131ed3	-0.008979517
218	0x3d7aed3f	0.06126141
219	0xbe214f51	-0.15752913
220	0xbdcf6e51	-0.10128463
221	0x3e087fb7	0.1332997
222	0xbc8f3b70	-0.017484397
223	0xbdf82eb4	-0.12118283
224	0xbe184689	-0.14870657
225	0x3db32911	0.08748067
226	0xbe8ee6e9	-0.27910545
227	0xbf04eb1e	-0.5192126
228	0xbcee4a90	-0.029088289
229	0x3eb84cac	0.35995996
230	0x3e07d134	0.13263398
231	0xbded08a6	-0.11573915
232	0x3ec3498d	0.38142052
233	0x3eaaa672	0.33330113
234	0xbde6f2b2	-0.11276759
235	0xbca6bb7b	-0.02035307
236	0x3dd5ec48	0.10445458
237	0xbe5ce418	-0.21571386
238	0x3e252a86	0.16129503
239	0x3e8d4121	0.27588752
240	0xbdbea87e	-0.09309481
241	0xbe5d4808	-0.21609509
242	0xbd3a9971	-0.04555649
243	0xbdc8095f	-0.097674124
244	0xbce69c04	-0.028150566
245	0xbcce4de9	-0.025183635
246	0xbcd7f3ef	-0.026361434
247	0xbd02247c	-0.031773075
248	0xbbeb1356	-0.007173936
249	0xbdb5f859	-0.08885259
250	0xbd57bd53	-0.052670788
251	0xbb306775	-0.0026917134
252	0x3dd9ac36	0.1062855
253	0xbd60cbda	-0.054881908
254	0x3cd472bf	0.025933621
255	0x3bbbe8f2	0.0057345564

block_2.0.bias f4 [10]
0	0x3dee4c94	0.116357
1	0xbd176c0e	-0.036968283
2	0x3df43899	0.11924858
3	0x3e1e5c0f	0.15464805
4	0x3d8ff824	0.07029751
5	0x3ce6748f	0.028131751
6	0x3e530e8d	0.2061102
7	0x3df9da7b	0.12199875
8	0xbcf527d4	-0.029926218
9	0x3c9b6ca6	0.018972706

block_2.2.weight f4 [10, 10, 3, 3]
0	0xbdeaa181	-0.11456586
1	0xbdff0b21	-0.124532945
2	0xbca56b79	-0.020192849
3	0xbebd49a8	-0.36970258
4	0xbeb3e880	-0.3513832
5	0xbddb97d7	-0.107223205
6	0x3ddc5f51	0.10760368
7	0xbe80f2e7	-0.2518532
8	0xbe4dae28	-0.20085967
9	0x3c5a0e49	0.01330907
10	0xbd4c1f95	-0.049834806
11	0xbdc72c72	-0.09725274
12	0x3dcc51d0	0.09976542
13	0xbc4b3f7c	-0.012405273
14	0x3d39bd9f	0.045346852
15	0x3db46a7a	0.08809371
16	0xbd172505	-0.03690054
17	0xbd5e48f2	-0.054268785
18	0xbdb60b69	-0.08888895
19	0x3e3e7bf4	0.18601972
20	0x3d38b9ef	0.045099195
21	0xbe89af75	-0.26891676
22	0xbe911775	-0.2833821
23	0xbebfe81e	-0.3748178
24	0x3e4a5f98	0.19763029
25	0xbd3ede6d	-0.04659884
26	0x3c821b91	0.015882285
27	0x3c0adf1c	0.008476045
28	0xbcb5bd84	-0.022185095
29	0xbd29ab8d	-0.04142337
30	0x3d91f84a	0.071274355
31	0x3c067188	0.008205779
32	0xbd99c66d	-0.0750855
33	0x3e99a1d2	0.30006272
34	0xbd4bcae9	-0.049754057
35	0xbdc3ff8b	-0.09570225
36	0xbe8f7ae6	-0.28023452
37	0x3c6d1efb	0.014472718
38	0xbe51f344	-0.20502955
39	0xbe550325	-0.20801981
40	0xbe4a2fd2	-0.19744805
41	0xbe47b214	-0.19501525
42	0x3e894061	0.2680693
43	0xbdad1814	-0.08451858
44	0xbe1b8263	-0.15186457
45	0x3e25cc01	0.16191103
46	0xbd961a89	-0.0732928
47	0x3d4d7ed0	0.050169766
48	0x3e685b73	0.22691135
49	0x3bb8ae61	0.005636022
50	0x3da6518f	0.08121025
51	0x3e62095b	0.22073881
52	0xbd221b13	-0.0395766
53	0xbd2c4b69	-0.042064104
54	0x3da7d003	0.08193972
55	0x3d95bc51	0.07311309
56	0xbe91a043	-0.28442582
57	0x3c742771	0.014901982
58	0x3d5ccb8a	0.053905047
59	0xbd668e28	-0.056287915
60	0xbe86ffed	-0.2636713
61	0xbda65033	-0.081207655
62	0xbde9dde5	-0.11419276
63	0xbdd08f33	-0.10183563
64	0xbe773a26	-0.24143276
65	0xbe5032c7	-0.2033187
66	0x3e6fccea	0.23418012
67	0x3e3bb414	0.18330413
68	0x3e98d195	0.29847398
69	0x3dfaf1b3	0.12253132
70	0x3e9a3602	0.3011933
71	0x3e1abf17	0.15111957
72	0x3dae62fe	0.08514975
73	0x3ce65d8a	0.028120775
74	0x3dc08adc	0.09401485
75	0x3d686719	0.056738947
76	0xbc25ab95	-0.010111709
77	0x3d3ce20d	0.046114016
78	0x3da76493	0.0817348
79	0x3db8a425	0.09015683
80	0xbb20439b	-0.0024454358
81	0x3e4ceffb	0.2001342
82	0x3d2c4c17	0.042064752
83	0xbde3be20	-0.11120248
84	0x3d15166a	0.03639833
85	0xbd8c1758	-0.0684039
86	0xbbb12e78	-0.005407151
87	0xbb9d07b7	-0.0047921794
88	0x3ddf5326	0.10904531
89	0x3c62f130	0.013851449
90	0xbefd5353	-0.49477634
91	0xbe876c0e	-0.26449627
92	0x3da2c65f	0.079479925
93	0x3e35e127	0.1776167
94	0xbe82887d	-0.25494757
95	0xbe815815	-0.25262514
96	0x3d1e433e	0.038638346
97	0xbe04a5fc	-0.12953943
98	0xbea8725c	-0.3289975
99	0xbd9cac8a	-0.07650097
100	0xbdc17e61	-0.09447933
101	0x3dd8d528	0.10587531
102	0xbd5cbf4b	-0.05389337
103	0xbd0acf21	-0.03388894
104	0xbbdf4c06	-0.0068144826
105	0x3da02a24	0.07820538
106	0x3dc7179e	0.097213015
107	0xbd21c04c	-0.03949003
108	0xbebce0c8	-0.36890244
109	0xbecf94fd	-0.40543357
110	0x3bf84223	0.0075762435
111	0x3c1a234c	0.0094078295
112	0xbefedb33	-0.4977661
113	0xbeb5c5e7	-0.3550255
114	0x3ed3075f	0.4121656
115	0x3e7e1732	0.24813536
116	0xbe9ca272	-0.30592686
117	0x3d8243c8	0.063605845
118	0x3dc57d42	0.09643032
119	0x3e2c70fc	0.16839975
120	0x3e17ec22	0.14836171
121	0x3e8b7dec	0.27244508
122	0x3d4fe129	0.05075184
123	0xbe5aacda	-0.21355
124	0x3df276e3	0.11839082
125	0x3e783602	0.24239352
126	0xbe8151f4	-0.25257838
127	0xbeb19d63	-0.3469039
128	0x3dc139f8	0.09434885
129	0x3e9d9c11	0.30783132
130	0xbe4beb9c	-0.19914097
131	0xbe959fd5	-0.29223505
132	0x3e0b1ccc	0.13585204
133	0x3e1d18c9	0.15341486
134	0xbccdf9bc	-0.025143497
135	0x3d687b1a	0.056758024
136	0x3e8b50a0	0.2720995
137	0x3e1d8244	0.15381724
138	0xbc9bf5f5	-0.01903818
139	0x3e0ac2f7	0.13550936
140	0x3e748ce2	0.23881868
141	0xbd95851f	-0.073007815
142	0xbdc9a464	-0.09845808
143	0x3deff6f4	0.117170244
144	0xbd9dbd84	-0.07702163
145	0xbe7dbce6	-0.2477909
146	0xb9513330	-0.00019950862
147	0xbec78cd8	-0.38974643
148	0xbdf1891b	-0.11793729
149	0x3c85b2aa	0.016320545
150	0xbe05a128	-0.13049757
151	0xbe63f292	-0.22260502
152	0x3dce9178	0.1008634
153	0x3e2cbdfb	0.16869347
154	0xbd8171a9	-0.06320507
155	0xbe9dd9fe	-0.30830377
156	0x3d679c0b	0.0565453
157	0xbe49d357	-0.19709526
158	0xbe81fab5	-0.25386587
159	0xbd50d7c2	-0.050987013
160	0xbb7a622d	-0.003820549
161	0x3e31fe2d	0.17382117
162	0x3e0053a2	0.12531903
163	0x3c823c0b	0.015897771
164	0x3d2226f9	0.03958795
165	0x3d4d5619	0.050130937
166	0xbc40ab40	-0.011759579
167	0xbda482ad	-0.08032737
168	0xbd24e9be	-0.040261976
169	0x3dad6d08	0.08468062
170	0xbdbc229e	-0.0918629
171	0xbdc84f7b	-0.09780785
172	0x3df91a53	0.12163224
173	0x3d8ab762	0.06773259
174	0xbd1f5402	-0.038898475
175	0x3d361b14	0.044459417
176	0x3e959fd5	0.29223505
177	0x3dec75af	0.11545884
178	0xbd7b00ea	-0.06128017
179	0x3c188dbc	0.009311136
180	0xbf03a17e	-0.5141829
181	0xbf137c09	-0.5761114
182	0xbe7556ee	-0.23958942
183	0xbd263603	-0.040578853
184	0xbe03817a	-0.1284236
185	0x3d6302ff	0.05542278
186	0x3e026a02	0.12735751
187	0xbc392938	-0.011301331
188	0xbd1dfc56	-0.038570724
189	0xbd0f2b93	-0.034953665
190	0x3d90d531	0.07071913
191	0xbdb31c86	-0.08745675
192	0xbd317647	-0.04332569
193	0xbd052dd7	-0.03251442
194	0xbd3c3321	-0.045947198
195	0x3d27de10	0.04098326
196	0x3df3c8e3	0.119035505
197	0xbd21c5d8	-0.03949532
198	0xbee2511c	-0.44202507
199	0xbe8cbac9	-0.27486256
200	0xbe8e9247	-0.27845976
201	0x3ba82e59	0.005132478
202	0x3e84d36a	0.25942546
203	0x3ec0169f	0.3751726
204	0xbdd9f79a	-0.106429294
205	0x3e1f1e63	0.15538935
206	0x3da33a1f	0.0797007
207	0x3e876391	0.2644315
208	0x3e92adb3	0.28648147
209	0x3d5062db	0.050875526
210	0x3ddffa3f	0.109364025
211	0xbe0d11a0	-0.13776255
212	0xbe11f416	-0.14253268
213	0x3ddbbeaf	0.107297294
214	0x3d76d787	0.060264137
215	0x3e00cd4b	0.12578313
216	0xbe9179ed	-0.28413334
217	0xbe8d3962	-0.27582842
218	0xbe6e593f	-0.23276232
219	0xbd24f5be	-0.04027342
220	0xbc3091fb	-0.010776992
221	0x3aeddaea	0.0018146907
222	0x3e106bb1	0.14103581
223	0x3e19d0f0	0.1502111
224	0x3ca24e7d	0.019812817
225	0x3e867bea	0.26266414
226	0x3e89e517	0.26932594
227	0x3e306621	0.17226459
228	0xbdd43e67	-0.10363465
229	0xbedafc22	-0.42770487
230	0xbeaa6bab	-0.3328527
231	0xbda3eae0	-0.08003783
232	0xbdd3c8f2	-0.10341062
233	0xbe2d3ed5	-0.169185
234	0x3e28b5f6	0.16475663
235	0x3da71bc8	0.08159596
236	0x3deba005	0.11505131
237	0xbe7fd8f8	-0.24985111
238	0xbe9a0433	-0.3008133
239	0xbed718ae	-0.42011017
240	0xbdf5a4a8	-0.11994296
241	0xbe74ab30	-0.23893428
242	0xbdeddb29	-0.11614067
243	0xbc8879c1	-0.01665962
244	0x3cbc591d	0.022991711
245	0x3d5d45ff	0.05402183
246	0x3dd0757e	0.1017866
247	0xbd141d84	-0.03616096
248	0xbd31895e	-0.043343894
249	0xbd2bcbd7	-0.041942444
250	0xbc1b08e5	-0.00946257
251	0x3ce49288	0.027901903
252	0x3cb7df5c	0.022445373
253	0x3c309275	0.010777106
254	0xbd808755	-0.062758125
255	0x3c9ba8c7	0.019001378

block_2.2.bias f4 [10]
0	0xbd32ec62	-0.043682463
1	0xbc0d6e5e	-0.008632271
2	0xbe0024e7	-0.12514077
3	0x3e05a814	0.13052398
4	0xbdca57b7	-0.098800115
5	0xbe527c0a	-0.2055513
6	0x3d860c35	0.06545297
7	0xbdcd180e	-0.10014354
8	0xbdd6a2d1	-0.104802735
9	0x3e04a99b	0.12955324

classifier.1.weight f4 [10, 490]
0	0xbc9a350d	-0.018824125
1	0x3c2a9632	0.010411786
2	0xba7abc52	-0.0009564805
3	0x3d63e25a	0.055635788
4	0x3cc5a24e	0.024125244
5	0x3c8b9a7f	0.017041443
6	0xb9fcc3d9	-0.00048211103
7	0xbc4b9cf3	-0.012427556
8	0xbd330673	-0.043707322
9	0xbd92047e	-0.07129763
10	0xbcdc27c4	-0.02687443
11	0x3d1c7027	0.038192894
12	0xbd6d7ee6	-0.057982348
13	0xbd47401d	-0.048645128
14	0xbd50bb68	-0.050959975
15	0xbd2bc3ca	-0.041934766
16	0xbd91aad7	-0.07112663
17	0xbd06c220	-0.032899976
18	0xbc32e0b9	-0.010917836
19	0xbd661c0a	-0.056179084
20	0xbd8231b1	-0.06357134
21	0xbbd3b4aa	-0.006460746
22	0xbdf7d24f	-0.1210066
23	0xbe915878	-0.2838781
24	0x3c7f2f4b	0.01557524
25	0x3cafcf0b	0.02146103
26	0xbc56622d	-0.01308493
27	0xbdf71c3c	-0.12065932
28	0x3cbf678b	0.023364803
29	0xbc6a86c6	-0.014314359
30	0xbd8f9e05	-0.07012562
31	0x3be04c18	0.0068450086
32	0x3c9b1048	0.018928662
33	0x3c314148	0.010818787
34	0xbc5b470e	-0.01338364
35	0x3a93da97	0.0011280355
36	0x3d2a098a	0.041513003
37	0x3d9b9225	0.07596234
38	0x3e698429	0.22804321
39	0x3dadd689	0.08488185
40	0xbd0acfa6	-0.033889435
41	0xba0e3ed6	-0.00054262334
42	0x3c9fb0ac	0.019493423
43	0x3d944715	0.0724012
44	0x3e252993	0.1612914
45	0x3dc99fd7	0.0984494
46	0xbd277d9a	-0.040891267
47	0xbada685c	-0.0016663182
48	0xbb498d1a	-0.003075427
49	0xbd2aabe4	-0.041667834
50	0xbd232ba4	-0.03983654
51	0xbcdf7a9d	-0.027280146
52	0x3c15eb10	0.009150282
53	0x3d30892f	0.04309958
54	0x3d82cffb	0.063873254
55	0x3df7a33d	0.12091682
56	0xbd925b54	-0.07146326
57	0xbdcbed4d	-0.09957371
58	0x3cc8b053	0.02449814
59	0x3c836780	0.016040564
60	0x3e257927	0.16159497
61	0x3ded0290	0.115727544
62	0x3dd64a2d	0.10463367
63	0xbd85893f	-0.06520318
64	0xbe0959c9	-0.13413157
65	0xbdea67bb	-0.11445566
66	0x3d0e0107	0.03466895
67	0x3d9bcf6c	0.07607922
68	0xbbad126c	-0.005281737
69	0xbd282739	-0.04105303
70	0x3d2ed851	0.042686764
71	0xbe252b91	-0.161299
72	0xbe477275	-0.19477256
73	0x3d4d930f	0.050189074
74	0x3e80c422	0.25149637
75	0x3d3d429a	0.046206094
76	0xbe3743c1	-0.1789694
77	0x3e14256a	0.14467397
78	0x3c62040f	0.013794913
79	0xbd8992e9	-0.06717474
80	0xb981faeb	-0.00024791746
81	0x3e864a89	0.2622874
82	0xbcc9f5fd	-0.02465343
83	0xbd92c482	-0.07166387
84	0x3e1486ff	0.14504622
85	0x3dd743ab	0.105109535
86	0x3e4be9fc	0.19913477
87	0xbdaf5bc9	-0.085624285
88	0xbca4c645	-0.020114074
89	0xbdb76464	-0.08954695
90	0xbd17b0ba	-0.037033774
91	0x3dcb07de	0.0991361
92	0x3d8b2e80	0.067959785
93	0xbbab8bf7	-0.005235191
94	0xbe5eda00	-0.21762848
95	0xbd8982b8	-0.06714386
96	0xbd1f50d4	-0.038895443
97	0xbcc69e16	-0.024245303
98	0x3bd173fe	0.006392001
99	0xbd935efc	-0.07195851
100	0xbd9cacf7	-0.07650178
101	0xbd0d3ef3	-0.03448386
102	0x3e01a0c5	0.12658985
103	0x3da23718	0.079206645
104	0x3d447ef7	0.047972646
105	0xbbfbfbc4	-0.007689925
106	0x3d6ca128	0.057770878
107	0x3e2bbbe7	0.16770898
108	0x3e1c58d4	0.1526826
109	0x3d876f31	0.06613005
110	0x3d9674e6	0.07346515
111	0x3ca82d01	0.020529272
112	0x3c1b530f	0.009480252
113	0x3d57f4e8	0.052723795
114	0x3e36258b	0.17787759
115	0xbe1df551	-0.15425612
116	0xbea446af	-0.32085177
117	0xbdb312ee	-0.08743845
118	0x3d139404	0.03602983
119	0x3d5cc01a	0.05389414
120	0xbdf2f228	-0.11862594
121	0xbeb10da8	-0.3458073
122	0xbe666d04	-0.22502524
123	0xbd836d23	-0.064173006
124	0xbd474fbd	-0.04866003
125	0xbd2f7e6e	-0.042845182
126	0xbd00b1e0	-0.031419635
127	0xbe8963a9	-0.26833847
128	0xbe35408b	-0.17700402
129	0x3da27dfb	0.07934185
130	0x3e12304b	0.14276235
131	0x3d48ebe4	0.049053088
132	0xbd7b3987	-0.06133416
133	0xbc325d3f	-0.010886489
134	0xbccde75d	-0.025134737
135	0xbd8bf5bf	-0.06833982
136	0x3dec80b8	0.11547989
137	0x3e2154ba	0.15754977
138	0x3c3c1297	0.011479042
139	0xbbd78793	-0.006577441
140	0x3d253415	0.040332872
141	0x3cb54a57	0.022130175
142	0xbd0e4302	-0.034731872
143	0xbc1ee6c9	-0.009698578
144	0xbd09f15f	-0.033677455
145	0xbc87e5e9	-0.016589122
146	0x3d0d62e4	0.034518138
147	0xbc6b0838	-0.014345221
148	0x3c073621	0.008252651
149	0xbd4b15e3	-0.04958142
150	0xbd3ee0f7	-0.046601262
151	0xbc94687b	-0.018116226
152	0xbd0e7396	-0.0347782
153	0xbd272312	-0.04080493
154	0x3ac011dd	0.0014653761
155	0xbe0d200d	-0.13781758
156	0xbdc1ffc7	-0.09472614
157	0xbd651f75	-0.055938203
158	0xbd1bc223	-0.03802694
159	0x3d4bb90d	0.049737025
160	0xbcf1fae2	-0.029538576
161	0xbcbed646	-0.023295533
162	0xbdfdc92f	-0.12391888
163	0xbe19b9be	-0.15012261
164	0xbcef6431	-0.02922258
165	0xbd214962	-0.039376624
166	0x3ca7c9fe	0.02048206
167	0xbe02ec1d	-0.12785383
168	0xbc699c5e	-0.014258472
169	0xbdfc7874	-0.12327662
170	0xbeab02d0	-0.33400583
171	0xbf081533	-0.5315735
172	0xbe74dc99	-0.23912276
173	0x3b3d3033	0.002886784
174	0x3d0262a2	0.031832345
175	0xbcdc9ecb	-0.026931187
176	0xbc89ee60	-0.016837299
177	0xbca87461	-0.020563306
178	0xbcb2a998	-0.021809384
179	0x3d156318	0.036471456
180	0x3d8f8134	0.070070654
181	0xbc244980	-0.010027289
182	0xbd1f8bc0	-0.038951635
183	0x3cf98e4e	0.030463364
184	0x3e867378	0.2625997
185	0x3e0e44d1	0.13893439
186	0x3cb810af	0.022468893
187	0x3cad0263	0.021119302
188	0x3bc64814	0.006051073
189	0x3ce92e49	0.028464453
190	0xbd9efd34	-0.077631384
191	0xbc3e3e01	-0.011611463
192	0xbcbe8e4a	-0.023261208
193	0xbd1af8c8	-0.037834913
194	0xbd16f843	-0.036857855
195	0x3d01495a	0.031564094
196	0x3c0c16cb	0.008550356
197	0x39fd376f	0.00048297222
198	0xbd0c1628	-0.034200817
199	0x3cdb2c8c	0.02675464
200	0xbd05b340	-0.03264165
201	0xbcb3f59c	-0.021967702
202	0x3d0e4e70	0.034742773
203	0x3d11e2ca	0.035616674
204	0xba013018	-0.0004928126
205	0xbd2212e3	-0.039568793
206	0x3cb73f59	0.022369074
207	0xbd2cc936	-0.042184077
208	0x3cdcb250	0.026940495
209	0x3ceaf424	0.028680868
210	0x3caf3bbd	0.02139079
211	0x3cc0e56c	0.023546897
212	0x3cabe17a	0.020981539
213	0xbc843fcf	-0.016143708
214	0x3cb8a434	0.022539236
215	0xbc95313b	-0.018211951
216	0x3d0823dc	0.033237323
217	0x3bf9b5f4	0.0076205675
218	0x3c67c118	0.014145158
219	0x3cfd3fda	0.030914236
220	0x3af83697	0.0018937167
221	0xbc91b838	-0.017788038
222	0xbbce3b61	-0.0062936996
223	0x3ae9d97c	0.0017841305
224	0x3caedaef	0.02134463
225	0xbc837121	-0.016045155
226	0x3bdb6204	0.006695034
227	0xbc93bf42	-0.018035535
228	0xbd144c1c	-0.036205396
229	0xb7eea30e	-2.844774e-05
230	0xbaa75590	-0.0012766588
231	0xbc444832	-0.011980103
232	0xbc3b954c	-0.011449169
233	0xbc9d08ad	-0.019169176
234	0xbc9d47e4	-0.01919932
235	0x3d2bcb4f	0.041941937
236	0xbc82ac21	-0.015951218
237	0xbb97e1d2	-0.004635074
238	0xbd344e14	-0.044019774
239	0x3b92795f	0.004470035
240	0x3c983aa2	0.018582646
241	0x3c82a9cc	0.015950106
242	0xbd2d23df	-0.042270537
243	0xbcbe0540	-0.023195863
244	0xbcd4c6ef	-0.025973765
245	0xbb488b59	-0.0030600636
246	0x3c46fd3d	0.012145338
247	0xbdea37f5	-0.11436454
248	0xbe1230ed	-0.14276476
249	0xbe0f68c6	-0.14004812
250	0xbe24e69f	-0.161036
251	0xbabb55ab	-0.0014292499
252	0xbaaed7d7	-0.0013339472
253	0xbd2f0ebd	-0.042738665
254	0xbe031627	-0.12801419
255	0xbe02e35e	-0.12782046

classifier.1.bias f4 [10]
0	0xbd920cb3	-0.071313284
1	0x3eb52dde	0.35386556
2	0xbcd7adb9	-0.026327955
3	0xbe2f242b	-0.1710364
4	0xbcc1d74b	-0.02366223
5	0xbe19046d	-0.14943095
6	0x3d20cc70	0.039257467
7	0x3d475bbb	0.048671465
8	0x3c4e74d6	0.012601098
9	0xbc3ea897	-0.011636875
